model/model.pth (torch, 16787 bytes, 4 tensors)

linear1.weight f4 [256, 11]
00000000: 0305 04be 876c db3e cb3d 4abe 0e5d 6bbe
00000010: 6404 d53e 2483 2abf 00a8 cbbc 134b 24be
00000020: 650c 0d3f 37b2 353e f03b dbbe 47a7 afbe
00000030: d165 c53e 3b24 99be 3eae 533e 56b9 d8be
00000040: 54fa a5be d9df 9b3d 4c0e ab3e 0c5a ccbe
00000050: d15d 70be db8d a03e 1a06 59be da32 3ebf
00000060: 0435 eb3d 2830 993c 696f 583e 0aa7 b73d
00000070: b762 443d 0240 bb3c c898 ecbd 71be 79bc
00000080: 169d 95bd 894f bebe 6954 c3bd 4b36 55bd
00000090: 24b5 8abe bb28 77be d2d6 803d b07a 7cbe
000000a0: 8926 e23d c408 c63c 4cc3 3abd dc7d d4bd
000000b0: d531 8c3e ddbd 813f adf6 03bf 6ceb 273d
000000c0: e515 753d fa42 fe3b 9b6b 88be 0a22 bf3e
000000d0: 88d3 c23d 6bbe 023e cf62 a23e 311f 053f
000000e0: 19c9 f53c 653d abbe 399c 153e 8a60 b83d
000000f0: 9978 d23e 3bea 92be 3c14 e5bd 7030 c7be
00000100: a767 9cbe 63a4 af3e da33 873d 7c51 e7be
00000110: 8af4 aa3e 4b27 ac3e f401 5ebe c9e0 a2be
00000120: 9e80 ad3d 5ffa 05bf f2af 563b 01c5 c43e
00000130: dbb7 cbbe 45d5 373e 2d5e ffbd d202 21be
00000140: af36 033f 23ca d63e 5ac3 9abd 53de 57bd
00000150: b815 67be 70b1 63be 02ca c23e 1db2 773e
00000160: cc37 df3e 00ea f8be ecaf d13d 26ff c8bd
00000170: 1ac4 81be 6bbb bb3e 3819 3d3e 61e1 303e
00000180: bc6b 003e ebdd 8fbe 86ac f8be a000 013f
00000190: 0f26 413f d88a 023f d990 ecbd b93f 8abd
000001a0: 1179 f5bd 883a babd d0a6 ce3e 8e19 3e3e
000001b0: 5b41 8d3e 32cb 953e 929c 98be ebe9 b9be
000001c0: abe8 32be 6e24 043d a492 b43d 3aee 4a3d
000001d0: bd4c e53d 2808 e8bd 2837 cebd 0445 91bc
000001e0: fb7d 7cbd f483 4abe 5aa2 a3be 504c e5be
000001f0: 33d3 9bbe f842 f53e 4a13 76bd 2330 563d
00000200: c01c 1dbf 0e6f 393e 888b 88be 1453 ddbd
00000210: 79a4 793f ea85 f83d 97cd 21bf f5ce 13bf
00000220: ff29 29be db13 4f3e 5887 c7bc 2674 023f
00000230: 0aba ad3e 3449 2cbe e092 083e 5378 df3e
00000240: edfc 65be 7598 963d df33 b3be 024e c13d
00000250: e566 dd3e 802d f63e a020 f83e cdea 81bd
00000260: 6245 08bf ca2f 09bf 0ccc 1d3f ba1c d13d
00000270: 0414 323f 6ce8 7ebe 4aa0 0fbd b6ab 7ebe
00000280: 3938 86bd 914a c93e a569 a53d 33b7 c23e
00000290: 0a17 0a3e ff3b 9c3e b9eb 1bbf 2627 3c3f
000002a0: a947 153e 3d28 913e 75a6 713d 2a93 803e
000002b0: 0dbd 003d 2b86 0fbe a5bb b33d d981 0ebc
000002c0: dd1c c13e afe8 8a3e b4c5 583d e4b8 a1be
000002d0: dc1d fdbc a5f4 4b3e 5916 64be 7953 573e
000002e0: caf7 87bd 60cb debe 4748 593d 40f5 e5be
000002f0: cdff 503e 9a9e 353f aff8 cabd 6a95 84be
00000300: 6457 19be a227 87be b6f0 f33d 49c6 653e
00000310: 117b f2bd 3004 28bc 1d79 6abd 3934 35bf
00000320: 85e4 4f3e 09d5 803e a4b5 6abe 01d4 b2be
00000330: 4bbd 633e 355d 4b3e df39 a8be 50cf 27bc
00000340: 1135 51be 07cf e43e dd35 5ebf 9f1d d93e
00000350: 7bdb eabb e276 14be d04a 3e3d b86b d43c
00000360: f3fc 97be 997b fcbd 7d39 adbd 8280 07be
00000370: ef45 93be 60e4 9f3e 6014 36bc 7489 413e
00000380: 223c f0bd ed1d b93d daf4 31bf a2f2 ea3e
00000390: 14a9 97be 25c0 dabe ba3e dcbd b87c 36be
000003a0: 78cf 183e 5d7a 02be 1d8b d43e 0d48 c4bc
000003b0: ad71 a63d c79c f7be 3ada e33e bb27 e6be
000003c0: 24c1 e8be ab53 c2bd 8c80 493f a65b d83c
000003d0: c23c 80bf 6c8a 24be 6375 7dbd c154 22be
000003e0: 17e5 b13e 86ef c33e 295b 703e 353f c43e
000003f0: 4933 ddbd fcd4 a1bd b997 203e cd85 dc3d
-0.12892537 0.42856237 -0.19750135 -0.22984716 0.41604912 -0.66606355 -0.024860382 -0.16044264
0.5509704 0.17743765 -0.42819166 -0.3430731 0.38554242 -0.29910454 0.20671937 -0.423289
-0.32417548 0.07611055 0.33409345 -0.3991245 -0.23473288 0.31358227 -0.21193734 -0.74296343
0.11484721 0.01869972 0.2113625 0.08967407 0.047945704 0.02285767 -0.11552578 -0.015243159
-0.073053524 -0.37170056 -0.09537584 -0.05205373 -0.27091324 -0.24136631 0.06290974 -0.24656177
0.11042506 0.024174102 -0.045596406 -0.10375568 0.2738177 1.0136067 -0.5154827 0.040996
0.059835333 0.007759449 -0.26644596 0.37330657 0.09513003 0.12767951 0.3171601 0.5200072
0.030003117 -0.33445278 0.14610375 0.09002788 0.41107634 -0.2869433 -0.111855 -0.38904142
-0.3054783 0.34305105 0.06601687 -0.45179355 0.33389693 0.33623728 -0.21680433 -0.31812122
0.084717974 -0.5233516 0.003275868 0.38431552 -0.39788708 0.1795245 -0.124691345 -0.15723732
0.51255316 0.41951093 -0.075567916 -0.05270226 -0.22566879 -0.22235656 0.38044745 0.24189039
0.43597257 -0.48616028 0.102386326 -0.09814291 -0.25344926 0.36666426 0.18466651 0.17273475
0.12541097 -0.28098997 -0.48569125 0.5039158 0.754487 0.5099311 -0.11551065 -0.067504354
-0.11985982 -0.09093195 0.40361643 0.18564436 0.27588925 0.29256588 -0.29806954 -0.36311278
-0.17471568 0.032261305 0.08817032 0.049543597 0.11196277 -0.11329681 -0.10069114 -0.017733105
-0.06164358 -0.19776899 -0.31959802 -0.44784784 -0.3043457 0.47902656 -0.06007699 0.052292
-0.61371994 0.1810877 -0.26668954 -0.108068615 0.9751659 0.12134917 -0.6320433 -0.57737666
-0.16519926 0.20222418 -0.02435653 0.5095848 0.33931 -0.168248 0.13337278 0.43646488
-0.22459765 0.073532976 -0.35000512 0.09438707 0.43242565 0.4808159 0.4846239 -0.06343613
-0.5323087 -0.53588545 0.61639476 0.10210557 0.6956179 -0.2489335 -0.035064973 -0.2487019
-0.06553692 0.39314702 0.08076791 0.38030395 0.13485351 0.30514523 -0.6090656 0.73497236
0.14578117 0.28351012 0.058996636 0.25112277 0.031430293 -0.14016025 0.08776025 -0.00869795
0.37717333 0.27130648 0.05292292 -0.31586373 -0.030898027 0.19917543 -0.2227415 0.21027936
-0.06639059 -0.43514538 0.053047445 -0.44913673 0.2041008 0.7094513 -0.09910714 -0.25895244
-0.14974743 -0.26397425 0.11911146 0.22438921 -0.11839879 -0.010254905 -0.05724441 -0.7078281
0.20302017 0.25162533 -0.22920853 -0.3492737 0.22240178 0.19859774 -0.32856652 -0.010242298
-0.204304 0.446892 -0.8680094 0.42405412 -0.0071672774 -0.14498475 0.046458066 0.02593027
-0.29685172 -0.12328262 -0.08458231 -0.13232616 -0.28764293 0.31228924 -0.011113256 0.1890009
-0.117302194 0.09038911 -0.6951424 0.4588824 -0.29621184 -0.4272472 -0.10754152 -0.17821014
0.14922893 -0.1274199 0.41512385 -0.023960138 0.08127151 -0.483618 0.4450243 -0.44952187
-0.45459855 -0.09488615 0.7871177 0.026410889 -1.0018542 -0.16068429 -0.061879527 -0.15852644
0.34745094 0.3826868 0.23472275 0.38329473 -0.108007975 -0.07901952 0.15682878 0.10767708

linear1.bias f4 [256]
00000000: 27ba b7bd 5f3a 213e 1b91 1d3f aa50 3bbe
00000010: 4a95 d9bd 57a2 c3bd 910b 8ebd 02bd 3dbe
00000020: d70f 81bc 41a4 dabe aede 0f3f da3a 47bc
00000030: 9d8f 25be 9c5b 9abd e7d8 aebe 7bb8 a93d
00000040: a5b9 90be e28c a33c 40f6 6ebd da59 093e
00000050: f824 b43d 2f5a d3bd 7879 f9bd 7040 fdbd
00000060: c810 91be 4f20 113e 996a 36bd a4c4 583f
00000070: 6739 73be e0b3 b2bd 1463 0e3f b6fe d9bd
00000080: 0c35 65be cd13 963d 9b6d 42be e21b ed3e
00000090: 626e 7f3e df3d 513d 6ee9 b2be 65d6 d5bc
000000a0: 15e7 083c b9dc c5be 2caf febe a963 a93e
000000b0: 63ad d83d e944 663e fb8f 0c3e fe09 f53d
000000c0: 2b36 3bbe f5dd 69be 40c5 a83d 63eb a9be
000000d0: e5d3 863e 0511 b3be 3999 c0bd 65cb 80bd
000000e0: a009 0bbe 7623 8abe 0040 6cbe e269 76be
000000f0: 6e27 b1bd fc75 23be 47f2 13be 11b3 593d
00000100: 2fc9 84be 2057 90be 42b7 3b3e 4301 ac3e
00000110: 806a 103d 6a08 12be a122 2cbe 5218 09be
00000120: d127 acbd ac15 6fbe 61f0 bc3d b6bd d8bc
00000130: 0c11 b8bd df41 9dbe 0ff5 6fbe 1d57 91bc
00000140: 331f a7bd ad16 a9be 2078 0dbc e580 8dbd
00000150: 6704 9bbd 0f08 a3be 1344 053e 02c1 a2bd
00000160: f3c7 9c3c 84e7 413d 4632 49be 429e ab3e
00000170: 2bc0 043e 73fe 013e d29d f43e d28e d9bd
00000180: f9c0 38be 3ba6 903e 63c5 d03e 76a7 f4be
00000190: 4506 a4be a1d1 aaba a697 49be 7c55 4cbe
000001a0: 4b05 62be 6091 19be 1d8a 07be b091 b5be
000001b0: fce3 9e3e e98c 783d 1986 b0bd 34eb 2cbc
000001c0: a8bd 033f fd7e e1be 40a9 0abe a8c6 a4bd
000001d0: ecfd d6be 324e 86be f30a d23c d72a a5bd
000001e0: fb54 debe ba6f 903e da68 c0be 52de 86be
000001f0: caf8 dabe 837d 06be efbe 14be 821f 98be
00000200: 545a 89be bb42 c53d 04dd 873e 0bbd 69be
00000210: efa6 47be 7b37 6b3c 0781 b83d 7ea5 a5bd
00000220: 209a 52bd 69f6 26be dd1f e0bd 4ae7 0bbe
00000230: c68e 6bbd c73a 0fbe 32c4 a63c d279 48be
00000240: c29b 81be 9500 58bc b86f d5be e205 033e
00000250: 6f93 e6be 470c 493f 1ada 2dbe ec5a 7abe
00000260: 37c0 f0bd 2688 d53d d28b 8fbe 63f5 53be
00000270: 6321 63be 1bdf f0bd 19cb 43be 4d9b 523e
00000280: 326d 4bbd c0ae 8ebd 7db7 10be 6df4 573e
00000290: 3594 febe 8d55 23be c73b a0be 1d90 28be
000002a0: fb4a 083c 90cb 2dbe b9a5 223e e98f ae3d
000002b0: 1a72 43be 2839 a9be 581d 3cbe 8dc0 bbbe
000002c0: 9800 80be 4cb4 0b3e 455d 12be dddd 95be
000002d0: af11 b5be 949e ed3b 4fa8 ba3b 3f06 303e
000002e0: 6537 b7bd c349 bdbd 4f3f 08be c6e4 1b3e
000002f0: 5247 cfbd 90cd 8e3e 1170 19be f3e4 333f
00000300: c18c e33e 1a74 143e 4539 983c ba27 d93d
00000310: 285b 8ebe a9da 033d 841e 72bd dbc8 a33e
00000320: cb71 383e 58b6 56be d85d 9ebe 7bc5 bcbe
00000330: 1970 af3e 062e 04bc 28a4 093e e860 153f
00000340: 18e4 29bd 53a2 713c 6fbd 6a3e fbf2 163f
00000350: 40f8 8f3e a5d0 4f3e 7cf4 b3be 53fc 8b3d
00000360: fccf a93e 957a 523e 606e 2a3d 9320 94be
00000370: 1206 913e e031 88be 9a21 56be 2c6d e83d
00000380: 7579 2e3e 2c5b 463b 25e7 d9bd f02d f3bd
00000390: a67b b2bd 108e 723d a32f 6cbe a8bc 183e
000003a0: 0638 a53e 7588 5bbe 56b1 0fbd 1909 b83e
000003b0: cc45 0f3c 54b5 82be 17f8 3a3e 08be ee3e
000003c0: efc8 48be 1f9e 8abc 29d9 37be 99b9 babc
000003d0: 263e cabc 4c9b 96bd 66fb 143f e3b1 93be
000003e0: fd63 40be bd91 bcbd 2cf7 15be 67f6 6f3d
000003f0: d351 0b3e 06a9 453c ebcb debd 2fa9 383e
-0.089710526 0.15744923 0.6154954 -0.1829249 -0.10624178 -0.09552448 -0.069358 -0.18529132
-0.015754623 -0.4270344 0.5619916 -0.012160027 -0.16168065 -0.07537004 -0.34149858 0.0828714
-0.28266636 0.01996464 -0.05834031 0.13413182 0.08796114 -0.103199355 -0.121813715 -0.12365806
-0.28333116 0.14172481 -0.044535253 0.8467505 -0.23752366 -0.08725715 0.5561993 -0.106442854
-0.22383517 0.073279954 -0.18987124 0.46310335 0.24944451 0.051084395 -0.34943718 -0.026103208
0.0083558755 -0.3864496 -0.4974302 0.33083847 0.10579946 0.22487225 0.13726799 0.119647965
-0.18282382 -0.22838576 0.082407475 -0.33187398 0.26333538 -0.34973922 -0.09404225 -0.062887944
-0.1357789 -0.2698018 -0.23071289 -0.24063829 -0.08650099 -0.15962976 -0.1444789 0.053149287
-0.2593474 -0.2819147 0.18331626 0.33594713 0.035257816 -0.14261022 -0.16810085 -0.13388184
-0.08406032 -0.23348111 0.09225536 -0.026457649 -0.089876264 -0.30714318 -0.23433326 -0.017741734
-0.08160248 -0.33025113 -0.008634597 -0.0690935 -0.07569199 -0.31842086 0.1301425 -0.079469696
0.019138312 0.04733993 -0.19648084 0.3351918 0.12963931 0.12694721 0.47776657 -0.10622944
-0.18042363 0.28251824 0.40775594 -0.47784013 -0.32036033 -0.0013032445 -0.19686756 -0.19954485
-0.22072332 -0.14996862 -0.1323628 -0.35462713 0.31033313 0.060681257 -0.08619327 -0.010554124
0.5146127 -0.44042197 -0.13541126 -0.08045703 -0.41990602 -0.26231533 0.025639987 -0.08064812
-0.4342421 0.2821024 -0.37579995 -0.26341492 -0.42767936 -0.13133816 -0.1452596 -0.2971154
-0.26826727 0.096318685 0.2653581 -0.2282602 -0.19497274 0.014356489 0.09008985 -0.08088206
-0.051416516 -0.16304936 -0.109435774 -0.13662449 -0.057509206 -0.13987266 0.020357225 -0.19577721
-0.25314146 -0.0131837325 -0.41686797 0.12795213 -0.45034358 0.7853436 -0.1697773 -0.24448746
-0.11755412 0.10426359 -0.28036362 -0.20699076 -0.22180705 -0.11761304 -0.19120444 0.20567055
-0.049664684 -0.06966925 -0.14132495 0.21089335 -0.49722448 -0.15950604 -0.31295606 -0.16461225
0.008318658 -0.16972184 0.1588353 0.085235424 -0.19086495 -0.3305142 -0.18370569 -0.36670342
-0.25000453 0.13642997 -0.14293392 -0.2927083 -0.35365054 0.00725157 0.0056963335 0.17189883
-0.089461125 -0.092425846 -0.133054 0.15223989 -0.10121025 0.27891207 -0.14984156 0.70271224
0.44443324 0.14497414 0.018581996 0.1060328 -0.27803922 0.032190952 -0.059111133 0.31989178
0.18012159 -0.20967996 -0.30930972 -0.36869416 0.3426521 -0.0080676135 0.13441527 0.5835099
-0.041477293 0.014748174 0.22923826 0.5896451 0.28119087 0.20294435 -0.35147464 0.068352364
0.33166492 0.20554574 0.041609168 -0.28931102 0.28324944 -0.26600552 -0.20911255 0.11348948
0.1703852 0.0030266745 -0.106397904 -0.11873996 -0.0871499 0.059217513 -0.23065047 0.14915717
0.32269305 -0.21438773 -0.03508123 0.3594444 0.008744668 -0.25528967 0.18258701 0.46629357
-0.196079 -0.016921101 -0.17953934 -0.022793578 -0.024687838 -0.07353839 0.58196104 -0.28846654
-0.18788143 -0.09207485 -0.1464507 0.058584597 0.13605432 0.012064224 -0.10878738 0.18033288

linear2.weight f4 [3, 256]
00000000: 5a29 8e3e e9d9 ad3e 6c48 483e a77b 1abd
00000010: f2c3 d8bd a7f0 d3be 0abd 18be e91b e5be
00000020: a2ed 5ebe f0eb 88be 887c 033e acbd 2d3e
00000030: 7537 1bbf 119d 21bf 9c92 a2be d338 233d
00000040: 5cbc 29be e456 3c3d 1a7f da3d ddbf eebd
00000050: 32a7 e93d 3da9 b73e a22e f6be 31be ab3e
00000060: b661 14be e00f 9a3e 7c77 44be 653a b13e
00000070: 8417 d4bd ec04 173e 51cc b93e 669e e1be
00000080: 41e1 1cbd 5542 af3e 0354 5ebe 1cb0 813e
00000090: 1bf3 6d3e a350 cd3e 7ea2 d4bd 3463 b3be
000000a0: 1f96 3c3e b421 f8bd b662 dbbd 67d9 6b3e
000000b0: 92c3 92bd fb82 8b3d b93f 863e d0cc 8d3e
000000c0: 3aaa 1bbe 9113 f83b 6c14 8d3e e109 4cbe
000000d0: 46d5 c73e b6bd 833c 30a7 863d 434d 2dbe
000000e0: 31ac c53d 74ba fe3c d853 8ebe 33a0 e53d
000000f0: 4d71 613d df7a 213d 11a8 5bbe 64a3 5abe
00000100: bfc8 62be 58be 37be d6ad 08be d5e0 e43e
00000110: ab91 6a3e 53d5 61bd 46a0 96be bdc6 5cbe
00000120: 1eb1 aa3e 0eac 65be 3247 8dbe ca36 ca3e
00000130: 5617 993d 60ce 86bd 6e7e 6e3c aecc a33e
00000140: 794a 973e ac97 a23e ac9e 00bb eb8f a43e
00000150: 4bfb 35be a9b6 1cbe 1101 933d e154 753e
00000160: dca9 163d e16b 5c3e a55a 35be 1182 8e3e
00000170: 09b1 173d 8985 383e 287f 4b3e 613c 293e
00000180: 34fb e73c 2f1e 883e 101f cf3e 946c 5cbe
00000190: a613 7cbd 6114 48be bd2b 73be 76c8 9b3e
000001a0: d506 6d3b 4a48 dabe cf7e dbbd c1e0 e838
000001b0: 9ce5 db3d 3091 21bd e750 1abf 0286 a13d
000001c0: c92d 603e da3d f4bb 0e10 b0bd 0a15 a7be
000001d0: 42cb 4f3d 6d58 7dbe c2b8 0b3e 6e91 7b3c
000001e0: a330 05be e144 8e3e 7b2e c93c 6a32 00bf
000001f0: 66e1 36be ae14 e9be 6b10 febe 32da 59be
00000200: 28e8 cbbd a957 1a3e 8586 f63e b8f1 bcbc
00000210: 7f44 933c 3fed adbd e257 1abe 27ac 0a3d
00000220: 4529 e3be 8228 12be e3df a63e 84c9 9b3a
00000230: 50e8 a5be 7977 46be 39f8 813b ad6a 8abd
00000240: fe6a 78be e29e 0d3d 7a2f ebbd 901b cbbe
00000250: e556 6abe 6c90 e33e b8ee 32be af3c b7bd
00000260: fb9c e83a a554 3f3e ad16 7fbe f979 50be
00000270: 9bb9 ebbd d8ca a13d 8b97 1abd 9f8b ccbc
00000280: 9c14 b33c 29c6 bb3d d692 193d 6a24 423c
00000290: 9c2c a3be bdb6 87be 2a91 f93b dee4 0dbe
000002a0: 1c16 9bbe 5035 e3be 1c8a 3e3e c1fb 463e
000002b0: fd7b 74be 499a 063d 99ba e3bb af1b 28bc
000002c0: a4b2 17bd fe51 8e3e e4b1 0abf 1215 473c
000002d0: 9348 79be 42a3 20be 3606 95be fecb 233e
000002e0: ac8e 8cbd dd8a cabd 68f5 eabc 353d 0c3e
000002f0: 955a 143d c859 8cbd e388 e1bc 22a9 bd3e
00000300: d941 a13e e8a3 3c3e 0403 13be cd85 b93e
00000310: 10e1 4fbd b696 a23d 349a 263e 3202 bd3e
00000320: 1062 793d f326 84bd 9436 88be 9190 8bbe
00000330: ef53 d93e 5452 483e e0fe fabe 488d 9a3e
00000340: f004 953c fc31 a6be 30f0 973e 3809 5d3e
00000350: f610 8e3e 201b 0c3e 6d3a cf39 da50 e53d
00000360: b383 893e 6e1a b23e 2b61 b4be 32a3 1ebe
00000370: df91 a93e d55d d63c d02c de3c e39e 193e
00000380: 4eef 383e 1a0c 3fbe b0f7 5fbd 8604 30bf
00000390: 3d06 583d 258f e33e 41d6 88bd 191d dc3e
000003a0: d30d 813e 1087 c63a 08e2 30be 0ea4 453e
000003b0: cacb b8be 2501 52be 303d 9a3e 92d1 023f
000003c0: 482f 9b3c ba5d a0be bb22 fabc c916 543e
000003d0: 0a41 083c 2927 bebe 8993 4f3e 85c6 bf3c
000003e0: abdc 8cbd d82f 96be 6837 15bd df9b ebbe
000003f0: 99f3 4f3d 7317 073f f8da ecbd ce15 a33e
0.27765924 0.33955315 0.19558877 -0.03771558 -0.105842486 -0.4139454 -0.14915863 -0.44747856
-0.21770337 -0.26742506 0.12840474 0.16966885 -0.60631496 -0.6313029 -0.3175248 0.039849114
-0.1657576 0.045981303 0.10668774 -0.11657689 0.11408843 0.35871306 -0.48082453 0.33543542
-0.14490399 0.30090237 -0.19186205 0.34614864 -0.10356048 0.14747971 0.36288694 -0.4406616
-0.038300756 0.34230295 -0.21711735 0.25329673 0.23237269 0.40100583 -0.103825554 -0.35036623
0.18416642 -0.12115803 -0.10712187 0.23032151 -0.07166208 0.06812092 0.26220492 0.27695322
-0.15201655 0.007570692 0.27554643 -0.19925644 0.39029902 0.016081672 0.06574857 -0.16924004
0.096519835 0.031094767 -0.27798343 0.11212196 0.055039693 0.03942382 -0.21450831 -0.21351391
-0.22146891 -0.17943704 -0.13347563 0.44702783 0.2290713 -0.055135082 -0.29419154 -0.21560188
0.33338255 -0.22428915 -0.2759338 0.39494926 0.07475154 -0.06582332 0.01455651 0.31992096
0.29549006 0.3175634 -0.0019625826 0.3214105 -0.17771642 -0.15304054 0.07177938 0.2395816
0.036783084 0.21525528 -0.1771036 0.27833608 0.03703407 0.1801969 0.19872725 0.16526939
0.028318025 0.26585528 0.40453386 -0.21525794 -0.061542176 -0.19539024 -0.23747154 0.30426377
0.0036167402 -0.42633277 -0.10717546 0.00011104486 0.10737154 -0.039445102 -0.602797 0.07886888
0.21892466 -0.0074536623 -0.08596812 -0.3263324 0.05073095 -0.24740763 0.13644698 0.015354497
-0.13006835 0.27786925 0.024558296 -0.50076926 -0.1785942 -0.4552359 -0.496219 -0.21274641
-0.0995639 0.15072502 0.48149505 -0.02306448 0.017976997 -0.08492517 -0.15072587 0.033855584
-0.44367424 -0.14273265 0.32592687 0.0011885618 -0.32403803 -0.19381513 0.003966358 -0.06758628
-0.24259564 0.03457535 -0.11483665 -0.39669466 -0.2288471 0.44446123 -0.17473876 -0.08947121
0.0017746979 0.18684633 -0.24910994 -0.20359029 -0.11510011 0.079000175 -0.03774218 -0.02496892
0.021860413 0.091686554 0.03749355 0.011849502 -0.31869972 -0.26506606 0.007616182 -0.13856837
-0.30290306 -0.44376612 0.18607372 0.19431974 -0.23875423 0.03286198 -0.0069497344 -0.0102605065
-0.0370356 0.2779693 -0.5417769 0.01215102 -0.24344091 -0.15687278 -0.291063 0.15995786
-0.0686315 -0.09889767 -0.028681472 0.13695224 0.0362192 -0.06853062 -0.027531093 0.370431
0.3149555 0.184219 -0.14356619 0.36234894 -0.050751746 0.07938902 0.16269761 0.36915737
0.060884535 -0.064527415 -0.2660414 -0.27258733 0.4244685 0.19562656 -0.4902258 0.30185914
0.018190831 -0.3246001 0.29675436 0.21585548 0.27747315 0.13682222 0.00039525647 0.11197062
0.2685829 0.3478579 -0.35230383 -0.15491942 0.33119103 0.02616779 0.027120978 0.15002017
0.18060037 -0.1865696 -0.054679573 -0.687569 0.052740324 0.44445148 -0.06681491 0.4299095
0.2520586 0.0015146453 -0.17273724 0.19300863 -0.3609298 -0.20508249 0.30124807 0.5110103
0.018943444 -0.31321508 -0.030534139 0.20711817 0.008316288 -0.37139252 0.20271124 0.023410091
-0.068780266 -0.29333377 -0.036429793 -0.46017358 0.050769422 0.52770156 -0.115652025 0.31852573

linear2.bias f4 [3]
00000000: a64c 893e 83e1 fb3c 89d6 a1ba
0.2681629 0.03074718 -0.0012347262
