model.pth (torch, 16787 bytes, 4 tensors)

linear1.weight f4 [256, 11]
0	0xbdebe58f	-0.11518394
1	0x3ec7033b	0.38869652
2	0xbe626813	-0.22110014
3	0xbe776f38	-0.2416352
4	0x3ed44c90	0.41464663
5	0xbf3317b5	-0.6995805
6	0xbd33ed25	-0.04392733
7	0xbe14ae6a	-0.14519659
8	0x3f089bef	0.53362936
9	0x3e1d3780	0.15353203
10	0xbee11e53	-0.43968448
11	0xbeab4d40	-0.33457375
12	0x3ea8cfed	0.32971135
13	0xbe8949b8	-0.26814055
14	0x3e65b632	0.22432783
15	0xbef3895c	-0.47565734
16	0xbeb05121	-0.34436896
17	0x3d7ef1c5	0.06224229
18	0x3eb376a5	0.35051456
19	0xbec67db2	-0.38767773
20	0xbe86a913	-0.26300868
21	0x3e99581e	0.2995004
22	0xbe33eab1	-0.17569996
23	0xbf397a1d	-0.72451955
24	0x3df1d4e6	0.11808185
25	0x3cd63d75	0.026152352
26	0x3e55cf77	0.20879923
27	0x3dde34ef	0.1084994
28	0x3d342e8a	0.043989696
29	0x3d30baf2	0.043147035
30	0xbdee6e8a	-0.116421774
31	0xbd5d4f87	-0.05403092
32	0xbd84c667	-0.06483155
33	0xbebe4f89	-0.37170056
34	0xbdc35469	-0.09537584
35	0xbd55364b	-0.05205373
36	0xbe8ab524	-0.27091324
37	0xbe7728bb	-0.24136631
38	0x3d80d6d2	0.06290974
39	0xbe7c7ab0	-0.24656177
40	0x3de22689	0.11042506
41	0x3cc608c4	0.024174102
42	0xbd3ac34c	-0.045596406
43	0xbdd47ddc	-0.10375568
44	0x3e7bba29	0.24582733
45	0x3f79377c	0.9735029
46	0xbef85f15	-0.48510042
47	0x3d02886a	0.031868376
48	0x3d7abeea	0.061217226
49	0xbba1972d	-0.0049313516
50	0xbe9b147e	-0.30289072
51	0x3ebccfa7	0.36877176
52	0x3da97bdb	0.08275577
53	0x3e18733c	0.14887708
54	0x3e9b6ae0	0.30354977
55	0x3f004fe5	0.5012191
56	0x3d8f260b	0.06989678
57	0xbead62c6	-0.3386442
58	0x3e0d8c85	0.13823135
59	0x3de85904	0.113451034
60	0x3ed2b9ce	0.41157383
61	0xbe8e4ea6	-0.2779438
62	0xbdcf90cc	-0.1013504
63	0xbebeb15c	-0.3724469
64	0xbeb31fb9	-0.3498514
65	0x3eb9c786	0.36285037
66	0x3d5b21fd	0.05349921
67	0xbee7517c	-0.45179355
68	0x3ea84549	0.3286536
69	0x3eaebdb5	0.3412911
70	0xbe4eff23	-0.20214514
71	0xbea6f186	-0.32606143
72	0x3dd75e91	0.10516084
73	0xbf047432	-0.517398
74	0x3c6432c1	0.013928116
75	0x3ed35838	0.41278243
76	0xbecbb7db	-0.39788708
77	0x3e1e0c94	0.15434486
78	0xbdd525a3	-0.10407569
79	0xbe295bfd	-0.16538997
80	0x3efe6330	0.4968505
81	0x3ed4cfaf	0.415647
82	0xbd91b7b0	-0.07115114
83	0xbd68c605	-0.05682947
84	0xbe68d59d	-0.22737737
85	0xbe869985	-0.26289
86	0x3ec524e9	0.38504723
87	0x3e820c54	0.2540003
88	0x3edceb1f	0.43148133
89	0xbef24586	-0.47318667
90	0x3de05b4d	0.10954914
91	0xbe25065a	-0.16115704
92	0xbe71ca96	-0.23612437
93	0x3ebc6dd2	0.36802536
94	0x3e424d93	0.18974905
95	0x3e2e2317	0.17005573
96	0x3de68a1a	0.112568095
97	0xbe929e99	-0.28636625
98	0xbee6b051	-0.45056394
99	0x3eeeca30	0.46638632
100	0x3f439d5e	0.76412
101	0x3f02064d	0.50790864
102	0xbde0bde9	-0.109737225
103	0xbd7b0496	-0.06128367
104	0xbe0028d5	-0.12515576
105	0xbdc93de9	-0.098262616
106	0x3ecbe355	0.39821878
107	0x3e4c0633	0.1992424
108	0x3e9df029	0.3084729
109	0x3e92221b	0.28541645
110	0xbe85ee10	-0.2615819
111	0xbebd5b25	-0.369836
112	0xbe2fec51	-0.17179991
113	0x3d15c812	0.036567755
114	0x3da9bc09	0.08287818
115	0x3d81946d	0.06327138
116	0x3de2fef0	0.11083782
117	0xbdbf7c54	-0.093498856
118	0xbddbe2af	-0.10736596
119	0xbd89496f	-0.067034595
120	0xbd5754c8	-0.052571088
121	0xbe4a83f4	-0.19776899
122	0xbe907134	-0.28211367
123	0xbeed14fc	-0.46305072
124	0xbe9bd333	-0.3043457
125	0x3eea3c48	0.45749116
126	0xbd54b4cd	-0.051930238
127	0x3d65747a	0.056019284
128	0xbf1d1cc0	-0.61371994
129	0x3e2712cc	0.16315764
130	0xbe8e4978	-0.27790427
131	0xbdeaaec8	-0.11459118
132	0x3f713370	0.9421911
133	0x3e201dd5	0.1563638
134	0xbf20c29b	-0.62796944
135	0xbf113a81	-0.56729895
136	0xbe17b26b	-0.14814155
137	0x3e4f619c	0.20252079
138	0xbd030d1d	-0.031994928
139	0x3f064724	0.524523
140	0x3ea21394	0.31655562
141	0xbe15a83d	-0.14614959
142	0x3e15f1ab	0.1464297
143	0x3edb429e	0.42824262
144	0xbe511aeb	-0.20420425
145	0x3d927cf1	0.07152737
146	0xbed7475f	-0.4204664
147	0x3dfdb2ed	0.12387643
148	0x3ede4124	0.43409073
149	0x3ef6153d	0.4806308
150	0x3ef3d046	0.47619838
151	0xbd8a0b27	-0.067404084
152	0xbf053da7	-0.520472
153	0xbf067bf4	-0.5253289
154	0x3f13c7c5	0.577267
155	0x3e0b651c	0.13612789
156	0x3f320053	0.69531745
157	0xbe818d0b	-0.2530292
158	0xbd0cdef9	-0.03439233
159	0xbe8447c4	-0.25836003
160	0xbd6e1314	-0.058123663
161	0x3ec1f62e	0.37883133
162	0x3d98380a	0.074325636
163	0x3ed07844	0.40716755
164	0x3df4c097	0.11950796
165	0x3ea76e30	0.32701254
166	0xbf1bd42e	-0.60870636
167	0x3f3859ae	0.7201184
168	0x3e138353	0.14405565
169	0x3e923d30	0.28562307
170	0x3d56322e	0.05229395
171	0x3e840266	0.2578308
172	0x3c9e4638	0.019320592
173	0xbdff0e7f	-0.12453937
174	0x3dad1833	0.08451881
175	0xbc2474ee	-0.010037644
176	0x3eb16b64	0.34652245
177	0x3e879e4e	0.26487964
178	0x3d82caac	0.06386313
179	0xbe934361	-0.28762344
180	0xbcaa5c04	-0.02079583
181	0x3e4168b5	0.18887599
182	0xbe766d87	-0.24065219
183	0x3e511adc	0.20420402
184	0xbda7b57a	-0.08188911
185	0xbedb4d00	-0.42832184
186	0x3d91f95d	0.071276404
187	0xbee4017c	-0.44532382
188	0x3e4541a6	0.19263324
189	0x3f32da0c	0.69863963
190	0xbdcb0881	-0.09913731
191	0xbe8a043a	-0.2695635
192	0xbe27d418	-0.16389501
193	0xbe82b7e2	-0.25530916
194	0x3e0837c8	0.13302529
195	0x3e4dc430	0.20094371
196	0xbe042840	-0.12905979
197	0xbc10d044	-0.008838717
198	0xbce9d304	-0.028543003
199	0xbf353439	-0.7078281
200	0x3e516789	0.20449652
201	0x3e84406c	0.258304
202	0xbe58f7aa	-0.21188226
203	0xbeb2d401	-0.3492737
204	0x3e6aea0b	0.22940843
205	0x3e592280	0.21204567
206	0xbeaabc9e	-0.33347028
207	0xbc85bac8	-0.016324416
208	0xbe5bba0a	-0.21457687
209	0x3ee061d4	0.43824637
210	0xbf5e35dd	-0.8680094
211	0x3ed35c35	0.41281286
212	0xbd56ccff	-0.052441593
213	0xbe00495f	-0.12527989
214	0x3cf68f64	0.03009767
215	0x3d819e17	0.06328981
216	0xbea22338	-0.31667495
217	0xbdf85676	-0.12125866
218	0xbd978367	-0.0739811
219	0xbe04612b	-0.12927692
220	0xbe8c1e28	-0.27366757
221	0x3e81512b	0.2525724
222	0x3d04ff50	0.032470047
223	0x3e450e77	0.19243799
224	0xbdeb57ee	-0.11491381
225	0x3dd43a98	0.10362738
226	0xbf377d06	-0.71675146
227	0x3eee9661	0.46599105
228	0xbe97a914	-0.29621184
229	0xbed5f5ad	-0.41788998
230	0xbdc7aea4	-0.09750107
231	0xbe207a34	-0.15671617
232	0x3daf50d9	0.08560342
233	0xbd9dd52a	-0.077066734
234	0x3ed7a375	0.42116895
235	0xbd486720	-0.048926473
236	0x3da3f805	0.0800629
237	0xbef79cc7	-0.483618
238	0x3eeae4bd	0.45877638
239	0xbee627bb	-0.44952187
240	0xbef58a67	-0.47957155
241	0xbdc04434	-0.09388009
242	0x3f40c798	0.75304556
243	0x3cad4051	0.021148833
244	0xbf785403	-0.9700319
245	0xbe596783	-0.21230893
246	0xbdb20b05	-0.08693508
247	0xbe2a06bc	-0.16604131
248	0x3eb1c020	0.34716892
249	0x3ebd21d4	0.3693987
250	0x3e354d39	0.1770524
251	0x3ec76aca	0.3894866
252	0xbde7ea76	-0.11324017
253	0xbdc5517f	-0.09634685
254	0x3e18c995	0.14920647
255	0x3daaa5c3	0.08332398

linear1.bias f4 [256]
0	0xbdf307ba	-0.11866708
1	0x3e23591f	0.15951966
2	0x3f1f374d	0.6219376
3	0xbe3b50aa	-0.1829249
4	0xbdfa8592	-0.12232508
5	0xbdb3bea3	-0.087765954
6	0xbd457e4d	-0.048216153
7	0xbe41660e	-0.18886587
8	0xbca5606f	-0.020187585
9	0xbede7969	-0.43452004
10	0x3f0ea143	0.55714816
11	0xbcf7a177	-0.03022836
12	0xbe22f24e	-0.15912744
13	0xbdae9018	-0.085235775
14	0xbeb19588	-0.34684396
15	0x3dab5d3f	0.08367395
16	0xbe98b2c1	-0.29823878
17	0x3cb3186c	0.021862231
18	0xbd54b6b0	-0.051932037
19	0x3e08ff73	0.13378696
20	0x3db893a5	0.09012536
21	0xbdc1b499	-0.094582744
22	0xbe16631c	-0.14686245
23	0xbe0f63b3	-0.14002876
24	0xbe9110c8	-0.28333116
25	0x3e17219c	0.14758915
26	0xbd52f26b	-0.05150072
27	0x3f5908d1	0.8477908
28	0xbe7b6f30	-0.24554133
29	0xbd96939e	-0.073523745
30	0x3f0ffe47	0.5624737
31	0xbde413ba	-0.11136575
32	0xbe43a6e5	-0.19106634
33	0x3d754390	0.059878886
34	0xbe3ad02d	-0.18243475
35	0x3ee56c4f	0.44809195
36	0x3e7fdc51	0.24986388
37	0x3ce8cc0c	0.02841761
38	0xbebcc7cb	-0.3687118
39	0xbd61f0cb	-0.05516128
40	0x3c4e423b	0.012589033
41	0xbece702f	-0.40319964
42	0xbf04180c	-0.5159919
43	0x3eb02620	0.34404087
44	0x3deeae84	0.1165438
45	0x3e77aea9	0.24187721
46	0x3e0eb272	0.13935259
47	0x3dd0bf09	0.10192687
48	0xbe3bef8e	-0.18353102
49	0xbe69ddf5	-0.22838576
50	0x3dc3397e	0.0953245
51	0xbeaec0a6	-0.34131354
52	0x3e8e1a24	0.2775432
53	0xbeb31105	-0.34973922
54	0xbdc1c279	-0.09460921
55	0xbd925b05	-0.07146267
56	0xbe1a060f	-0.15041374
57	0xbe8a2376	-0.2698018
58	0xbe7a496b	-0.24442069
59	0xbe744545	-0.23854549
60	0xbda7df90	-0.08196938
61	0xbe195c6a	-0.1497666
62	0xbe1745fd	-0.14772792
63	0x3cdb973d	0.026805514
64	0xbe6ea9ad	-0.23306914
65	0xbe962219	-0.2932289
66	0x3e394d41	0.18095876
67	0x3eaee972	0.3416248
68	0x3cc78521	0.024355473
69	0xbe3c1ade	-0.18369624
70	0xbe267b48	-0.16257966
71	0xbe24f69c	-0.16109699
72	0xbdc09ddd	-0.0940511
73	0xbe681e04	-0.226677
74	0x3d9a5c21	0.075371034
75	0xbb9cf14b	-0.0047895066
76	0xbda6884a	-0.08131464
77	0xbeaaf192	-0.3338743
78	0xbe6ff50f	-0.23433326
79	0xbbf2ec9a	-0.007413459
80	0xbdbdab35	-0.09261171
81	0xbe94c6fc	-0.29058063
82	0xbc0e6ee8	-0.008693434
83	0xbdb27cd2	-0.08715214
84	0xbd9fd81e	-0.07804893
85	0xbead408b	-0.33838305
86	0x3ddb9900	0.10722542
87	0xbde3491a	-0.110979274
88	0x3c86ecd1	0.016470345
89	0x3cf540b0	0.029938072
90	0xbe63930d	-0.22224064
91	0x3e9ad9a5	0.30244175
92	0x3e1457a9	0.14486565
93	0x3dca6ee7	0.09884434
94	0x3eed22e5	0.46315685
95	0xbe120b71	-0.14262177
96	0xbe38c0f9	-0.18042363
97	0x3e8b0832	0.2715469
98	0x3ed0feb8	0.40819335
99	0xbf00404c	-0.5009811
100	0xbea40645	-0.32036033
101	0xbb8ed961	-0.0043594097
102	0xbe685626	-0.22689113
103	0xbe65e06e	-0.22448894
104	0xbe76237f	-0.24036978
105	0xbe1afd89	-0.15135778
106	0xbe17c27f	-0.14820288
107	0xbeb591b0	-0.35462713
108	0x3ea5fd5c	0.3241986
109	0x3d44a1e4	0.048005953
110	0xbdab965f	-0.083782904
111	0xbc8c37ab	-0.017116388
112	0x3f01d957	0.5072226
113	0xbee17efd	-0.44042197
114	0xbe118e6f	-0.1421449
115	0xbd93da4a	-0.0721937
116	0xbed6fdec	-0.41990602
117	0xbe8630ae	-0.26209015
118	0x3cc53c5d	0.024076635
119	0xbda77f7c	-0.081786126
120	0xbee46bee	-0.44613594
121	0x3e940340	0.2890873
122	0xbec068da	-0.37579995
123	0xbe8b4f9e	-0.2720918
124	0xbee8b323	-0.4544917
125	0xbe00edf6	-0.12590775
126	0xbe1d83d5	-0.15382321
127	0xbe93846d	-0.2881197
128	0xbe97099d	-0.29499522
129	0x3dc2ea18	0.09517306
130	0x3e8b090e	0.27155346
131	0xbe823b62	-0.2543593
132	0xbe443a72	-0.1916292
133	0x3bb77127	0.0055982056
134	0x3dc773b3	0.09738865
135	0xbdc6607b	-0.09686371
136	0xbd4b3fbf	-0.04962134
137	0xbe27d09d	-0.16388173
138	0xbdef32bf	-0.11679601
139	0xbe0be74a	-0.13662449
140	0xbd491512	-0.04909236
141	0xbe362a78	-0.17789638
142	0x3ca1eafd	0.019765371
143	0xbe4879d2	-0.19577721
144	0xbe7c5e4a	-0.24645343
145	0x3c40e7bc	0.011774
146	0xbede668d	-0.43437615
147	0x3dc9b9d1	0.09849895
148	0xbef355e5	-0.4752647
149	0x3f43dba0	0.76506996
150	0xbe338157	-0.17529808
151	0xbe85f473	-0.26163062
152	0xbddfc911	-0.10927022
153	0x3dd395f6	0.10331337
154	0xbe902ac8	-0.2815764
155	0xbe41f54e	-0.18941233
156	0xbe6cd0af	-0.23126481
157	0xbe0852e6	-0.13312873
158	0xbe533bbf	-0.2062826
159	0x3e4cfc8f	0.20018218
160	0xbd068b65	-0.03284778
161	0xbd73181f	-0.059349176
162	0xbe2026a7	-0.15639745
163	0x3e57f46d	0.21089335
164	0xbf045d5b	-0.5170495
165	0xbe2c3eb9	-0.16820802
166	0xbea03bc7	-0.31295606
167	0xbe394556	-0.18092856
168	0x3b4b5564	0.0031026239
169	0xbe29ad2b	-0.16569965
170	0x3e20508e	0.15655729
171	0x3d8b7ee0	0.06811309
172	0xbe332c32	-0.17497328
173	0xbea93928	-0.3305142
174	0xbe4b5882	-0.19857982
175	0xbebbc08d	-0.36670342
176	0xbe800098	-0.25000453
177	0x3e0e14f7	0.13875185
178	0xbe31bf69	-0.17358173
179	0xbe95dddd	-0.2927083
180	0xbeb55a45	-0.35420433
181	0x3c2a05b4	0.010377336
182	0x3b5f03c4	0.0034029344
183	0x3e32f3ea	0.17475858
184	0xbdf778f0	-0.12083614
185	0xbdd8d820	-0.105880976
186	0xbe083f4f	-0.133054
187	0x3e106ac9	0.14103235
188	0xbdfcecdc	-0.12349865
189	0x3e8edc4d	0.2790245
190	0xbe1eb356	-0.15498099
191	0x3f32b65f	0.69809526
192	0x3eed2fc4	0.46325505
193	0x3e13fbda	0.14451542
194	0x3cd65336	0.026162725
195	0x3dcbdd77	0.099543504
196	0xbe96ce3c	-0.2945422
197	0x3cd94da2	0.026526276
198	0xbd8b5391	-0.068030484
199	0x3eaa32ba	0.33241826
200	0x3e43bc35	0.19114764
201	0xbe7094c9	-0.23494257
202	0xbe9f8adc	-0.3116063
203	0xbec04d8f	-0.37559173
204	0x3eaaf758	0.33391833
205	0xbcd9edcc	-0.026602648
206	0x3df639e6	0.12022762
207	0x3f161005	0.58618194
208	0xbd29e418	-0.041477293
209	0x3cb1fef5	0.021728018
210	0x3e74cfc5	0.23907383
211	0x3f16b877	0.5887522
212	0x3e85c4be	0.26126665
213	0x3e572f0b	0.21014039
214	0xbeb65215	-0.356095
215	0x3d54e01d	0.051971544
216	0x3eac45ff	0.33647153
217	0x3e55222e	0.2081382
218	0x3d198648	0.037481576
219	0xbe8fd513	-0.2809225
220	0x3e83f3be	0.25771898
221	0xbe8d7a6f	-0.27632472
222	0xbe689c03	-0.22715764
223	0x3e0a65cf	0.135154
224	0x3e308989	0.17239965
225	0xbc55d7bb	-0.013051922
226	0xbdcd59bd	-0.10026882
227	0xbe0f9e8b	-0.14025323
228	0xbdbc0fd8	-0.091827095
229	0x3d7f9c37	0.062404837
230	0xbe6dd20f	-0.23224662
231	0x3df7653a	0.12079854
232	0x3e98e39a	0.29861146
233	0xbe5b8875	-0.21438773
234	0xbd371d32	-0.044705577
235	0x3eb95eb2	0.3620506
236	0x3b79e6f5	0.0038132046
237	0xbe89beff	-0.2690353
238	0x3e2cc048	0.16870224
239	0x3ef345b1	0.47514108
240	0xbe48c8ef	-0.196079
241	0xbcaa8007	-0.020813001
242	0xbe37d929	-0.17953934
243	0xbcbf02ca	-0.02331676
244	0xbcb69b05	-0.022290716
245	0xbdbf4be1	-0.09340645
246	0x3f10ce83	0.5656511
247	0xbe976455	-0.29568735
248	0xbe33160f	-0.17488883
249	0xbe00b72c	-0.12569875
250	0xbe18ac76	-0.14909539
251	0x3d331e1c	0.043729886
252	0x3e04ce0d	0.12969227
253	0xbc3d3edf	-0.011550634
254	0xbdaec155	-0.08532969
255	0x3e41771f	0.18893097

linear2.weight f4 [3, 256]
0	0x3e95765c	0.29191864
1	0x3eaea7d2	0.34112412
2	0x3e5057a6	0.20345935
3	0xbd1a7ba7	-0.03771558
4	0xbdf142e7	-0.11780339
5	0xbed04277	-0.4067571
6	0xbe2eeb64	-0.17081982
7	0xbeeafd1d	-0.45896235
8	0xbe4217a8	-0.18954337
9	0xbe900577	-0.2812917
10	0x3e06d830	0.13168406
11	0x3e3b6f6f	0.18304227
12	0xbf16eb19	-0.5895248
13	0xbf1bb070	-0.608161
14	0xbea2ef93	-0.31823406
15	0x3d4533b8	0.048145026
16	0xbe21efda	-0.15814152
17	0x3cfdfe0a	0.031004924
18	0x3e11a054	0.14221317
19	0xbdcd202d	-0.10015903
20	0x3e043738	0.1291169
21	0x3ec10dd6	0.37705868
22	0xbeee2c05	-0.4651796
23	0x3eba642f	0.3640456
24	0xbe1461b6	-0.14490399
25	0x3ea3da5e	0.32002538
26	0xbe36f30e	-0.17866156
27	0x3eb26ecc	0.34850156
28	0xbdefe7eb	-0.11714157
29	0x3e3c7b79	0.18406476
30	0x3eb9f4ac	0.36319482
31	0xbeeaba88	-0.45845437
32	0xbd67c4bb	-0.0565841
33	0x3ea9a080	0.33130264
34	0xbe4c3172	-0.19940737
35	0x3e89bc13	0.26901302
36	0x3e6b752d	0.22993918
37	0x3ebfc8d4	0.37457907
38	0xbdf1dd1b	-0.11809751
39	0xbeb05245	-0.34437767
40	0x3e49a114	0.19690353
41	0xbe09f855	-0.13473637
42	0xbe058fc7	-0.13043128
43	0x3e7a8272	0.24463823
44	0xbd30b036	-0.043136798
45	0x3d8a927d	0.06766222
46	0x3e883138	0.2660005
47	0x3e841769	0.2579911
48	0xbe1c304a	-0.15252796
49	0x3bf81391	0.007570692
50	0x3ea17877	0.3153722
51	0xbe3dc127	-0.18530713
52	0x3ed072c5	0.40712562
53	0x3c83bdb6	0.016081672
54	0x3db9bdf5	0.090694346
55	0xbe1fd1b3	-0.15607338
56	0x3d5908b2	0.052986808
57	0x3cfeba74	0.031094767
58	0xbe8ddef0	-0.2770915
59	0x3dfd971e	0.12382339
60	0x3d9d0c51	0.07668365
61	0x3ca16a05	0.019703874
62	0xbe381151	-0.17975356
63	0xbe3cb42b	-0.18428104
64	0xbe657ee9	-0.22411694
65	0xbe404818	-0.18777502
66	0xbe106536	-0.14101109
67	0x3eea27f5	0.4573361
68	0x3e54ed11	0.20793559
69	0xbda1b552	-0.07895912
70	0xbe95dc33	-0.2926956
71	0xbe67407c	-0.22583193
72	0x3ebd55fb	0.3697966
73	0xbe88f73c	-0.26751125
74	0xbea4a995	-0.3216063
75	0x3ee0b1d8	0.43885684
76	0x3de9d05e	0.11416696
77	0xbdaf1e86	-0.08550744
78	0x3c6e7e6e	0.01455651
79	0x3e9bdae6	0.30440444
80	0x3e90cba1	0.28280357
81	0x3eba03b1	0.3633094
82	0x3c5430ff	0.012951135
83	0x3e9bb9b6	0.30415124
84	0xbe24d91c	-0.16098446
85	0xbe1b854a	-0.15187564
86	0x3d91c30e	0.07117282
87	0x3e4e7197	0.20160519
88	0x3cd10437	0.025514705
89	0x3e6d4929	0.2317244
90	0xbe4dab98	-0.20084989
91	0x3e7fef10	0.24993539
92	0x3d75babb	0.059992533
93	0x3e139c1c	0.1441502
94	0x3e3d464c	0.18483847
95	0x3e0281de	0.12744853
96	0x3ce7fb34	0.028318025
97	0x3e8201a9	0.25391892
98	0x3ed7f422	0.42178446
99	0xbe629088	-0.22125447
100	0xbd7c13a6	-0.061542176
101	0xbe2f3e1a	-0.17113534
102	0xbe711df1	-0.23546578
103	0x3e982c8f	0.29721496
104	0xbce0f332	-0.027459715
105	0xbed76f17	-0.42076942
106	0xbde1066c	-0.10987553
107	0x38e8e0c1	0.00011104486
108	0x3e12f2fe	0.14350507
109	0xbd1030c6	-0.035202764
110	0xbf17bf65	-0.5927642
111	0x3d1e63e2	0.038669474
112	0x3e63e6a9	0.22255959
113	0xbbf43dda	-0.0074536623
114	0xbd860645	-0.065441646
115	0xbea82fe5	-0.3284904
116	0x3d4fcb42	0.05073095
117	0xbe7b17c4	-0.24520785
118	0x3e2635ac	0.16231412
119	0xbc93c979	-0.018040406
120	0xbe1cdb8d	-0.15318127
121	0x3e96dadb	0.29463848
122	0x3cc92e7b	0.024558296
123	0xbef11223	-0.4708415
124	0xbe46be3f	-0.1940851
125	0xbee6e566	-0.45096892
126	0xbef33907	-0.47504446
127	0xbe5f1b45	-0.21787746
128	0xbddf37a1	-0.10899282
129	0x3e132a93	0.1437171
130	0x3efd0dee	0.4942469
131	0xbcce75d9	-0.025202679
132	0xbcfbc410	-0.030733138
133	0xbda6ae3b	-0.081387006
134	0xbe490a77	-0.19632898
135	0x3d7695a5	0.060201306
136	0xbedce80d	-0.4314579
137	0xbe0883fa	-0.13331595
138	0x3e9f2475	0.31082502
139	0x3a9bc984	0.0011885618
140	0xbeb3185d	-0.34979525
141	0xbe479db1	-0.19493748
142	0x3c26194c	0.010137867
143	0xbd8a6aad	-0.06758628
144	0xbe5f63ba	-0.21815386
145	0x3d1922d4	0.03738673
146	0xbe0708e3	-0.13186984
147	0xbec81344	-0.39077199
148	0xbe694bb3	-0.22782783
149	0x3ee1df7c	0.44115818
150	0xbe240965	-0.16019209
151	0xbdae6e03	-0.08517077
152	0xbd137e07	-0.03600886
153	0x3e30c9ba	0.17264453
154	0xbe83aa50	-0.25715876
155	0xbe562eff	-0.20916365
156	0xbdc4b0af	-0.09604012
157	0x3d6bd8fd	0.057579983
158	0xbdc02e86	-0.09383874
159	0x3c8a6cc6	0.01689757
160	0x3c759e17	0.014991305
161	0x3de4b6eb	0.11167701
162	0x3c9b9e2c	0.01899632
163	0x3c42246a	0.011849502
164	0xbeb2583f	-0.3483295
165	0xbe7d206d	-0.247194
166	0x3bf9912a	0.007616182
167	0xbe016645	-0.12636669
168	0xbe8ec810	-0.2788701
169	0xbedb0807	-0.42779562
170	0x3e26b745	0.1628085
171	0x3e3fd290	0.18732667
172	0xbe6a9a17	-0.22910343
173	0x3d069a49	0.03286198
174	0xbcd8f815	-0.026485482
175	0xbc281baf	-0.0102605065
176	0xbd17b2a4	-0.0370356
177	0x3e938bea	0.28817683
178	0xbeff50cf	-0.4986634
179	0x3c471512	0.01215102
180	0xbe83f01e	-0.25769132
181	0xbe2d54e9	-0.16926922
182	0xbe97ee48	-0.29673982
183	0x3e2b9597	0.16756283
184	0xbcdb7cac	-0.026792847
185	0xbde87291	-0.11349977
186	0xbceaf568	-0.028681472
187	0x3e06c9b5	0.13162883
188	0x3d2a61a5	0.041597027
189	0xbd35cee6	-0.044386767
190	0xbd5a45ee	-0.053289346
191	0x3ec58170	0.38575315
192	0x3ea1e082	0.31616598
193	0x3e40a7cf	0.18814014
194	0xbdf413aa	-0.11917813
195	0x3eb5d178	0.35511374
196	0xbd4cbbb9	-0.049983714
197	0x3d8a3297	0.067479305
198	0x3e3be0c5	0.18347462
199	0x3ed8304b	0.42224345
200	0x3d41f821	0.047355775
201	0xbdb84a1a	-0.08998509
202	0xbe7fd2dd	-0.24982782
203	0xbe8ff54b	-0.2811683
204	0x3ed77a65	0.42085567
205	0x3e24e48b	0.16102807
206	0xbefac657	-0.48979446
207	0x3ea54d19	0.32285383
208	0x3c9504f0	0.018190831
209	0xbeaa911b	-0.33313832
210	0x3e9b94d7	0.30386993
211	0x3e592dcd	0.21208878
212	0x3e83c282	0.25734335
213	0x3e040bd4	0.12895137
214	0xbac0c941	-0.0014708416
215	0x3db92173	0.09039583
216	0x3e8b9b6a	0.2726701
217	0x3ec822b8	0.39088988
218	0xbec0f280	-0.37685013
219	0xbe1453aa	-0.1448504
220	0x3ea1428d	0.31496087
221	0xbc711013	-0.014713305
222	0x3c0d18de	0.008611886
223	0x3e2746cc	0.163356
224	0x3e31dc48	0.17369187
225	0xbe2d3ff4	-0.16918927
226	0xbd8eb996	-0.069689915
227	0xbf32271a	-0.69590914
228	0x3d83f696	0.06443517
229	0x3ef27058	0.47351336
230	0xbd7128e4	-0.058876887
231	0x3edfb0e5	0.43689647
232	0x3e66ec61	0.22551109
233	0x3ac68710	0.0015146453
234	0xbe2510cb	-0.16119687
235	0x3e32ac7b	0.17448609
236	0xbea8d878	-0.32977653
237	0xbe42e92d	-0.19034262
238	0x3e898a6d	0.26863423
239	0x3eff24fa	0.49832898
240	0x3c9b2f48	0.018943444
241	0xbe964a58	-0.29353595
242	0xbcfa22bb	-0.030534139
243	0x3e601497	0.21882854
244	0x3c67d33c	0.014149483
245	0xbec862db	-0.3913792
246	0x3e616d2a	0.22014299
247	0xbb97f526	-0.0046373783
248	0xbddd57b0	-0.10807741
249	0xbe8a3631	-0.2699447
250	0xbca68b91	-0.020330222
251	0xbeea1aab	-0.4572347
252	0x3d957c94	0.07299152
253	0x3f00096b	0.5001437
254	0xbdd4f0b5	-0.10397474
255	0x3e9620a1	0.2932177

linear2.bias f4 [3]
0	0x3e8b275e	0.27178472
1	0x3ce4559a	0.02787285
2	0xbc17b87b	-0.009260292
